actor.pth (torch, 601793 bytes, 7 tensors)

action_std_log f4 [1, 3]
6.013868e-07 6.626339e-06 -4.1588705e-06
00000000: fc6e 2135 d257 de36 6d8c 8bb6

net.0.weight f4 [128, 114]
-0.054752246 0.06661414 0.07178565 0.027525248 0.052544974 0.0156221595 0.031138098 0.0412068
-0.0778259 -0.065291636 -0.013382753 0.08694782 0.07787063 0.019990241 0.04368522 -0.08082056
-0.089406 -0.08012157 0.04561925 0.058928974 -0.033578336 -0.05810028 0.000730695 -0.03956429
0.005827939 -0.09017216 0.008244014 0.041309025 0.05224025 -0.08654694 0.075259104 0.053577024
-0.05756961 -0.03860131 0.007601837 0.040766586 0.05311735 -0.033330042 0.05747245 -0.0035825758
0.00049547345 -0.07410848 -0.07294332 0.024607383 0.0059511 0.00016668388 -0.079690665 0.004321333
0.08438921 -0.042139657 0.0021887368 -0.003206559 -0.071054086 -0.029018175 0.061828952 0.024130823
0.045323573 0.04169383 0.045711417 -0.09263648 0.058129746 -0.08059206 -0.020310607 -0.060867503
0.006173796 -0.03989429 0.009408597 0.030335171 0.0073353485 0.08098505 -0.027476422 -0.07370191
0.06301107 0.02402915 -0.007835786 0.044177853 0.008654923 0.004086787 -0.0084628 -0.01766837
0.02154299 0.03679751 -0.06259353 0.08108999 -0.043003924 -0.04032721 0.014922489 -0.06794653
-0.06622074 0.05028631 -0.02132414 0.028749606 -0.00760989 0.025022577 0.03956767 -0.08324539
0.039832268 -0.059681125 -0.080597885 0.075655326 -0.03208244 0.05910852 0.0872423 -0.08843294
0.028433003 0.069372736 0.015967384 -0.022739781 -0.043360554 0.060302496 0.04990576 -0.09247756
-0.03517365 -0.04713748 0.0282331 -0.021228347 -0.026304133 0.049004745 0.08424604 -0.067713395
0.05381839 0.063876614 0.07584575 0.015683927 0.006070553 0.0872972 -0.03578389 -0.08949831
0.040020395 -0.027544132 0.09221766 0.088271424 0.019666633 -0.09300739 0.039806187 0.090951584
0.08085803 -0.072794504 -0.054113127 -0.054179497 -0.06098138 0.040031165 0.04354116 -0.05009437
-0.026422929 0.0037834134 -0.076250926 -0.055729527 -0.06019029 -0.0126185445 0.024299925 0.09248652
0.070378594 0.05671548 -0.0201432 -0.01463713 0.02155951 -0.037752867 0.061543632 -0.07718955
0.069731005 0.064466834 -0.015561076 0.020481283 -0.07682064 -0.07204292 0.011164896 -0.0109556895
-0.030502414 0.072892174 -0.03209212 0.021847632 -0.006977063 0.042059977 0.04564622 0.014985127
-0.09004246 -0.050169677 -0.08007657 0.0797322 0.07139414 -0.07317251 -0.062889524 0.038913287
0.02860317 -0.053369522 -0.08039981 0.022348363 -0.0323337 -0.010514728 0.0923075 0.019298252
0.0013495425 -0.0066735125 0.06820695 -0.039559238 0.06997109 0.06400518 0.03780116 -0.02578041
-0.022691015 0.081060275 -0.08814969 -0.056587774 0.033468813 0.057578024 -0.029220354 0.09250781
0.056343954 0.079218976 0.083118424 -0.061317664 -0.00018798583 0.057022944 0.02362589 -0.04458248
-0.0069109565 -0.020826306 0.06528821 -0.08631064 0.06484676 0.056227997 0.013690406 -0.00044889477
0.05162904 -0.02167088 0.008119788 -0.003931664 0.04329066 0.04961185 0.0074418723 0.014109302
-0.012199258 0.00094307633 -0.019534051 0.08242807 0.01687957 0.014057158 -0.05100237 -0.008368162
-0.024678247 0.08794454 0.040499654 -0.02231993 0.010273949 0.0037018904 -0.08256074 0.09311608
-0.023983806 -0.061476015 0.009584867 0.0927433 0.029686008 -0.05207475 -0.04262268 0.022736834
00000000: e443 60bd ff6c 883d 5b04 933d a17c e13c
00000010: 6639 573d 16f4 7f3c 5315 ff3c 76c8 283d
00000020: 2f63 9fbd 9fb7 85bd 5643 5bbc b311 b23d
00000030: a37a 9f3d 93c2 a33c 46ef 323d 4085 a5bd
00000040: 7e1a b7bd c716 a4bd 40db 3a3d 825f 713d
00000050: 7089 09bd 8ffa 6dbd 1d8c 3f3a 2a0e 22bd
00000060: 4cf8 be3b 2eac b8bd e711 073c a733 293d
00000070: dff9 553d 863f b1bd 7221 9a3d 9573 5b3d
00000080: 1dce 6bbd 681c 1ebd d518 f93b ddfa 263d
00000090: 9491 593d 1585 08bd 3b68 6b3d a6c9 6abb
000000a0: a9e2 013a 30c6 97bd 4f63 95bd 6c95 c93c
000000b0: 7201 c33b ddc7 2e39 dc34 a3bd f899 8d3b
000000c0: 40d4 ac3d a29a 2cbd e970 0f3b 2225 52bb
000000d0: ce84 91bd 86b7 edbc 5b40 7d3d 01ae c53c
000000e0: 36a5 393d 26c7 2a3d e53b 3b3d 32b8 bdbd
000000f0: 7519 6e3d 730d a5bd 6e62 a6bc 3450 79bd
00000100: 8e4d ca3b 3268 23bd 8426 1a3c 7781 f83c
00000110: 5d5d f03b 7ddb a53d 3c16 e1bc 07f1 96bd
00000120: f30b 813d c8d8 c43c ab61 00bc d6f3 343d
00000130: 61cd 0d3c 74ea 853b 8ea7 0abc 42bd 90bc
00000140: ed7a b03c fcb8 163d 0931 80bd 8212 a63d
00000150: e224 30bd 252e 25bd 757d 743c 8d27 8bbd
00000160: bd9e 87bd 05f9 4d3d f6af aebc 4b84 eb3c
00000170: 625c f9bb 26fc cc3c b611 223d 8f7c aabd
00000180: 2927 233d 3274 74bd 8110 a5bd 2ef1 9a3d
00000190: e068 03bd c71b 723d 17ac b23d 541c b5bd
000001a0: 54ec e83c 4b13 8e3d 08ce 823c c748 babc
000001b0: d69a 31bd c0ff 763d fb69 4c3d e064 bdbd
000001c0: 3f12 10bd 3b13 41bd 1a49 e73c 12e7 adbc
000001d0: c47b d7bc 33b9 483d 3089 ac3d 52ad 8abd
000001e0: ac70 5c3d bed1 823d 0455 9b3d 947b 803c
000001f0: 7deb c63b e0c8 b23d 2192 12bd e44a b7bd
00000200: 6dec 233d 3ba4 e1bc 9ddc bc3d a6c7 b43d
00000210: eb1b a13c a97a bebd d00b 233d d344 ba3d
00000220: e598 a53d 4915 95bd baa5 5dbd 52eb 5dbd
00000230: 9dc7 79bd b8f7 233d 3758 323d c12f 4dbd
00000240: e674 d8bc 25f3 773b 7229 9cbd a544 64bd
00000250: 188a 76bd 03be 4ebc a310 c73c 9369 bd3d
00000260: a722 903d 7e4e 683d 5a03 a5bc 93d0 6fbc
00000270: 929d b03c c0a2 1abd 2d15 7c3d 8e15 9ebd
00000280: 21cf 8e3d 3007 843d e2f3 7ebc 5dc8 a73c
00000290: 2454 9dbd 3d8b 93bd f8ec 363c 7e7f 33bc
000002a0: 33e0 f9bc 7e48 953d 0773 03bd cef9 b23c
000002b0: d99f e4bb 1547 2c3d 88f7 3a3d 2e84 753c
000002c0: 2e68 b8bd b87e 4dbd 2fff a3bd a34a a33d
000002d0: 1737 923d 78db 95bd 39cc 80bd 8a63 1f3d
000002e0: 3251 ea3c 009a 5abd a8a8 a4bd ea13 b73c
000002f0: 5870 04bd f745 2cbc b70b bd3d 5e17 9e3c
00000300: 22e3 b03a 7bad dabb 16b0 8b3d de08 22bd
00000310: 014d 8f3d 2615 833d 64d5 1a3d 7031 d3bc
00000320: 82e2 b9bc ee02 a63d d387 b4bd 95c8 67bd
00000330: 9816 093d efd6 6b3d 865f efbc bc74 bd3d
00000340: ebc8 663d 8f3d a23d fe39 aa3d 3b28 7bbd
00000350: 101e 45b9 e490 693d 158b c13c 1e9c 36bd
00000360: 4e75 e2bb ee9b aabc d3b5 853d a2c3 b0bd
00000370: 61ce 843d 544f 663d ba4d 603c a359 ebb9
00000380: f978 533d 2187 b1bc dc08 053c 30d5 80bb
00000390: 8c51 313d cc35 4b3d f3da f33b b42a 673c
000003a0: 66df 47bc c838 773a e005 a0bc 0cd0 a83d
000003b0: 0647 8a3c fe4f 663c dce7 50bd 9e1a 09bc
000003c0: 092a cabc 441c b43d f7e2 253d 49d8 b6bc
000003d0: 1154 283c 6a9b 723b 9b15 a9bd a5b3 be3d
000003e0: b079 c4bc 46ce 7bbd d909 1d3c 33f0 bd3d
000003f0: 1230 f33c 554c 55bd 1f95 2ebd 9942 ba3c

net.0.bias f4 [128]
-0.059165098 0.01229059 -0.019288715 0.057595905 0.029220002 -0.01573432 -0.08052534 -0.07237451
-0.0706693 0.04988886 -0.04684389 0.029198118 0.05701343 0.04005931 -0.07765705 -0.04702578
-0.07687081 -0.0891232 0.014719207 -0.008338263 -0.028446594 -0.02011416 -0.0695225 0.069590315
-0.024142925 -0.07137441 0.04867908 0.024928229 0.0021116608 0.03099146 -0.045321446 -0.005741678
-0.03873296 -0.06409998 0.058743894 0.036316063 0.08683548 0.014362988 -0.006277703 0.04657178
0.056610454 0.034535646 -0.0049216724 0.0006391226 0.08526976 0.07338062 0.027946196 0.014815476
-0.0013788962 -0.08481424 -0.023135295 0.015667057 0.056465898 -0.07768999 -0.08547844 -0.07354942
-0.010324709 -0.05637041 0.06250143 -0.006128131 0.06292712 0.02561361 -0.029135158 0.039141137
-0.04753879 -0.017246226 -0.088412054 -0.031367842 -0.0069564534 0.013680179 -0.00142459 -0.03016618
0.02220728 0.037887815 -0.0327102 0.045276463 0.08270056 -0.027648782 0.011259188 0.027740177
-0.08075692 -0.053376723 0.04147262 -0.026285032 -0.05648298 -0.070219 -0.0044489284 -0.09278271
-0.08239884 0.019551907 -0.043929968 -0.0040518646 -0.074844584 0.0049147843 0.06615339 -0.005501911
-0.03512512 0.07179021 0.0029817526 0.023811812 -0.03378973 0.03275087 -0.0014633288 -0.07388746
-0.074660525 -0.08385916 -0.040310964 -0.0021666086 0.08864988 -0.088350475 0.07097826 -0.08685093
-0.07247731 0.042945422 -0.0748797 0.08182886 0.052741535 -0.082423 -0.06696966 -0.06993467
0.011662723 -0.042889185 0.038725816 0.09241947 -0.0017409177 -0.09018797 -0.06427549 0.04759888
00000000: 1a57 72bd 795e 493c 5e03 9ebc afe9 6b3d
00000010: c95e ef3c 43e5 80bc 78ea a4bd 1639 94bd
00000020: 11bb 90bd 4358 4c3d 61df 3fbd e430 ef3c
00000030: ea86 693d 3b15 243d a90a 9fbd 1b9e 40bd
00000040: 716e 9dbd 3986 b6bd d428 713c 369d 08bc
00000050: d508 e9bc 73c6 a4bc d061 8ebd 5e85 8e3d
00000060: 62c7 c5bc bf2c 92bd b763 473d 4936 cc3c
00000070: ca63 0a3b cde1 fd3c fba2 39bd b024 bcbb
00000080: 74a6 1ebd da46 83bd 709d 703d 27c0 143d
00000090: cdd6 b13d bd52 6b3c 31b5 cdbb 0dc2 3e3d
000000a0: 5de0 673d 4075 0d3d fb45 a1bb cb8a 273a
000000b0: e9a1 ae3d 9448 963d 6cef e43c 9cbc 723c
000000c0: 14bc b4ba 17b3 adbd 3b86 bdbc 3358 803c
000000d0: c948 673d ee1b 9fbd 520f afbd 14a1 96bd
000000e0: f828 29bc a9e4 66bd c000 803d 7dce c8bb
000000f0: efdf 803d a2d3 d13c dbac eebc 7552 203d
00000100: 09b8 42bd f547 8dbc 6111 b5bd 917b 00bd
00000110: f6f2 e3bb d422 603c 4fb9 baba 111f f7bc
00000120: 0bec b53c 4130 1b3d 21fb 05bd d073 393d
00000130: e95e a93d b37f e2bc 7578 383c 5e3f e33c
00000140: e263 a5bd 8da1 5abd 32df 293d b553 d7bc
00000150: b25a 67bd fbce 8fbd 51c8 91bb dd04 bebd
00000160: b9c0 a8bd 522b a03c e9ef 33bd 81c5 84bb
00000170: 1e48 99bd 330c a13b 6e7b 873d 6049 b4bb
00000180: 5cdf 0fbd bf06 933d 8269 433b fd10 c33c
00000190: 1a67 0abd c725 063d 2bcd bfba 4f52 97bd
000001a0: 9ee7 98bd 5abe abbd 1c1d 25bd a9fd 0dbb
000001b0: 118e b53d 18f1 b4bd 0d5d 913d e6de b1bd
000001c0: fc6e 94bd 8ae7 2f3d 875a 99bd e495 a73d
000001d0: 8207 583d 64cd a8bd 6427 89bd e939 8fbd
000001e0: 0115 3f3c 92ac 2fbd f69e 1e3d 6b46 bd3d
000001f0: 812f e4ba 78b4 b8bd dea2 83bd 0bf7 423d

net.2.weight f4 [1024, 128]
0.038818065 0.07044273 0.07208624 0.0001005985 -0.063701645 -0.007946284 -0.062468234 -0.020772293
0.07712385 -0.04955855 -0.055626914 0.060706433 -0.08222212 -0.0010175661 -0.08789906 -0.0026532796
-0.007175327 0.06429821 0.041638672 0.060103912 -0.014512699 -0.05060509 -0.05977026 0.08189274
-0.08253611 -0.045215692 0.04424859 0.0034995382 0.018418862 0.0013318532 0.084884085 -0.0520815
0.07480097 0.085223034 0.0118527785 0.03971585 0.0775795 0.026452005 0.04200425 0.018613849
-0.010617786 -0.008474456 0.046901774 -0.08258359 0.06659987 0.06881695 0.050319586 0.081989735
0.06538408 -0.0033771098 -0.014680349 0.011543373 0.020448001 0.027590737 -0.084938206 0.045038596
0.04608372 -0.048085567 0.05488434 0.053775437 -0.072650604 0.0004850229 -0.054384083 0.07476687
-0.077975765 -0.078575104 -0.05164047 0.031075431 0.081623025 -0.014788146 -0.019595776 0.04420881
-0.06268573 0.087878734 -0.041372515 0.07219318 -0.008060245 -0.058711737 0.056203574 0.060895123
0.014695057 -0.06380965 -0.056232844 0.0053045936 0.022698889 -0.032672744 0.01579617 -0.067717776
-0.059534293 0.046082802 -0.056971326 -0.035219908 0.078849055 0.043944307 -0.04633211 0.010849649
-0.020004293 0.01846535 -0.013541436 -0.076853104 -0.02916914 -0.057160914 0.01517828 -0.028491035
-0.05203009 0.056792486 -0.07848947 -0.055783603 0.006005715 -0.069689535 0.037094124 -0.06837452
-0.052441094 -0.0014214593 0.057932746 0.018441709 -0.057062898 0.030438092 -0.022754503 -0.040368732
-0.02300879 -0.03437442 0.025664797 0.0005313231 -0.08609214 0.029630635 -0.074447915 -0.076566115
0.047864717 -0.06611487 0.012365281 -0.037710514 0.053509064 -0.073717624 -0.012367411 0.02537801
-0.0029544774 -0.087771736 0.047540292 0.0116783725 0.021817183 -0.03209858 -0.027802076 -0.020927217
0.0811167 0.07547678 -0.08711269 -0.067475714 -0.033856172 -0.06183951 0.010094087 0.01372911
-0.07392472 -0.022514014 -0.013640064 0.063655555 -0.039535023 0.0014342992 0.07540478 0.050264608
-0.0070237815 -0.059053924 -0.017556708 -0.00845014 -0.015850628 0.053416807 0.009353737 0.055254787
-0.042269535 -0.030824672 0.06857436 0.08033722 0.007693218 0.03937544 -0.07258497 0.062870115
0.04516533 -0.05339432 0.013835388 -0.06737918 0.004078487 0.0438402 -0.08632514 0.0118092485
0.034173243 0.001387497 -0.06802976 -0.020458492 0.041237738 -0.08712233 0.05093985 0.014812189
0.062364347 -0.03213853 -0.009562584 0.010996598 0.025355397 -0.06818867 -0.026714332 0.01387483
0.046441708 0.0055477624 0.06300222 -0.07333537 -0.04563401 0.055320945 0.037138328 0.058514636
0.017967846 -0.04904802 0.028731609 0.014528777 -0.08172512 -0.05441021 -0.07712043 -0.05923766
-0.012021905 -0.051517215 -0.07910333 0.01004497 0.033100657 0.04399923 -0.08610068 0.005780386
-0.083191276 -0.07170454 0.071435444 0.030536225 -0.07405247 0.0021042328 -0.041023646 0.012833094
-0.06337032 -0.007368821 0.08170963 -0.07898037 0.0016243912 0.027093913 -0.035624187 -0.011214526
0.054640457 -0.049142797 -0.0099157505 -0.02575529 0.041542765 -0.0107209375 0.053095248 -0.013925598
0.049337156 -0.030385101 -0.022722438 0.08708198 0.013774079 0.021459214 -0.066786535 0.04409271
00000000: b1ff 1e3d 4744 903d f3a1 933d 69f8 d238
00000010: 0276 82bd 2131 02bc b1de 7fbd a82a aabc
00000020: 1cf3 9d3d e8fd 4abd 0cd9 63bd 4fa7 783d
00000030: 1264 a8bd da5f 85ba 6c04 b4bd a5e2 2dbb
00000040: 011f ebbb c8ae 833d 508d 2a3d 852f 763d
00000050: acc6 6dbc 4847 4fbd a9d1 74bd 62b7 a73d
00000060: b108 a9bd 1734 39bd 023e 353d 8258 653b
00000070: 27e3 963c 9491 ae3a b5d7 ad3d 6953 55bd
00000080: 4031 993d 6a89 ae3d 2832 423c 16ad 223d
00000090: 00e2 9e3d e0b1 d83c a60c 2c3d 127c 983c
000000a0: 39f6 2dbc 72d8 0abc 131c 403d 9621 a9bd
000000b0: 8365 883d e7ef 8c3d e91b 4e3d 3cea a73d
000000c0: 17e8 853d 8052 5dbb d985 70bc 6a20 3d3c
000000d0: 9182 a73c f805 e23c 15f4 adbd 647a 383d
000000e0: 48c2 3c3d 5ff5 44bd 67ce 603d a243 5c3d
000000f0: d7c9 94bd ac4a fe39 d8c1 5ebd 5f1f 993d
00000100: c2b1 9fbd fceb a0bd f584 53bd e791 fe3c
00000110: f929 a73d fb49 72bc 5287 a0bc 4c14 353d
00000120: 6061 80bd c4f9 b33d 3a76 29bd 05da 933d
00000130: 1e0f 04bc b87b 70bd b835 663d 2a6d 793d
00000140: 89c3 703c a2ae 82bd 6954 66bd 28d2 ad3b
00000150: 05f3 b93c dbd3 05bd f866 813c 9eaf 8abd
00000160: 3bda 73bd 52c1 3c3d c45a 69bd c042 10bd
00000170: 9d7b a13d f2fe 333d bdc6 3dbd bac2 313c
00000180: 0be0 a3bc a544 973c e6dc 5dbc 2965 9dbd
00000190: 1ff4 eebc 9021 6abd 52ae 783c 0866 e9bc
000001a0: 811d 55bd 3d9f 683d 16bf a0bd 597d 64bd
000001b0: 97cb c43b 63b9 8ebd 02f0 173d f107 8cbd
000001c0: 79cc 56bd 4250 baba e34a 6d3d 1113 973c
000001d0: c9ba 69bd 4e59 f93c a767 babc af59 25bd
000001e0: ee7c bcbc 31cc 0cbd fb3e d23c 7d48 0b3a
000001f0: 1351 b0bd f2bb f23c 2678 98bd b2ce 9cbd
00000200: cb0d 443d 3c67 87bd bf97 4a3c 5776 1abd
00000210: 522c 5b3d 44f9 96bd aea0 4abc 8be5 cf3c
00000220: e89f 41bb abc1 b3bd 9cb9 423d a556 3f3c
00000230: f3b9 b23c cd79 03bd 2ec1 e3bc 8e6f abbc
00000240: 8320 a63d 9293 9a3d 2368 b2bd b530 8abd
00000250: c5ac 0abd 6d4b 7dbd ab61 253c 10f0 603c
00000260: d865 97bd 4f6f b8bc 937a 5fbc d85d 823d
00000270: 7aef 21bd 18ff bb3a d26d 9a3d 43e2 4d3d
00000280: c027 e6bb 87e2 71bd 16d3 8fbc 7572 0abc
00000290: 2dd9 81bc 95cb 5a3d 6b40 193c d852 623d
000002a0: d222 2dbd 0684 fcbc b770 8c3d d787 a43d
000002b0: 6417 fc3b 2448 213d 6ea7 94bd 0cc2 803d
000002c0: 48ff 383d 01b4 5abd d3ad 623c 18fe 89bd
000002d0: d4a4 853b c891 333d 3ccb b0bd 947b 413c
000002e0: 3ef9 0b3d acdc b53a 3053 8bbd 9198 a7bc
000002f0: e7e8 283d 316d b2bd 4ea6 503d d3ae 723c
00000300: c271 7f3d b1a3 03bd 62ac 1cbc 132b 343c
00000310: 1fb6 cf3c 80a6 8bbd 04d8 dabc 4153 633c
00000320: a939 3e3d 01ca b53b 4f07 813d db30 96bd
00000330: baea 3abd 3798 623d 5c1e 183d 0bad 6f3d
00000340: 4e31 933c 94e6 48bd 8d5e eb3c 1c0a 6e3c
00000350: 805f a7bd 3edd 5ebd 51f1 9dbd 30a3 72bd
00000360: 86f7 44bc b703 53bd ed00 a2bd a893 243c
00000370: 8e94 073d 8938 343d 8e55 b0bd 6469 bd3b
00000380: 3060 aabd d4d9 92bd bf4c 923d 1b27 fa3c
00000390: d2a8 97bd 2be7 093b 6908 28bd e641 523c
000003a0: 4cc8 81bd 2776 f1bb 6157 a73d 76c0 a1bd
000003b0: 86e9 d43a 0ef4 dd3c abea 11bd 22bd 37bc
000003c0: acce 5f3d f549 49bd ac75 22bc c2fc d2bc
000003d0: bf28 2a3d dfa6 2fbc 677a 593d 3128 64bc
000003e0: c215 4a3d 2dea f8bc 6824 babc 0a58 b23d
000003f0: adac 613c 3ccb af3c 61c7 88bd 8f9a 343d

net.2.bias f4 [1024]
-0.03169293 0.07560892 -0.044013616 0.03631949 -0.078497835 0.03493254 0.06164918 0.05882877
-0.017641038 0.016640527 -0.07993412 -0.009663584 0.05383436 0.04260778 0.06643385 -0.039817978
-0.044656515 -0.054445058 -0.07404894 0.04563711 -0.015971731 -0.0023145343 -0.06236427 0.03387868
-0.07718085 0.02897469 -0.037670676 0.026808977 -0.04585459 0.04695558 0.018437069 0.0488536
0.02054853 -0.053800512 -0.04797423 -0.032593697 -0.020869834 0.0810289 -0.01162191 -0.05845837
0.06643479 -0.06806881 0.068476595 -0.0020466745 -0.043942343 0.062093347 0.0632922 0.079080954
0.056787435 -0.049602997 -0.058081347 0.054921396 -0.07380081 -0.054394882 0.06185497 -0.0177079
0.05393966 -0.05674619 0.008543999 0.05954348 0.02515017 -0.0070999973 -0.07718262 0.00916511
0.049639724 -0.0051207244 0.026348362 0.039694317 0.05411491 0.024769796 0.066739954 -0.06356049
0.058302503 -0.061498765 0.031001346 0.017836904 -0.027116721 0.049692165 -0.0055968342 0.023288254
-0.039786153 -0.00966418 -0.029804077 -0.08610692 -0.019281222 -0.06901524 0.06583188 -0.08379317
-0.004795434 -0.050958436 -0.00085096713 0.023079552 -0.04479078 -0.02297953 -0.019009273 0.02741307
-0.063172266 0.068408825 -0.058379482 -0.072662 0.018712116 -0.03571483 -0.058709413 0.038318954
0.0075439825 -0.009849845 -0.07690901 -0.007896717 0.044895485 0.06367523 -0.040299013 -0.037478577
0.03725177 -0.0039831526 0.051154613 -0.019932956 -0.03228386 -0.007923813 0.03589062 -0.024032956
0.074444376 0.0026963265 -0.002826084 -0.0023053496 -0.06795681 -0.0049209064 -0.025371004 -0.076011755
0.062018983 0.020661559 0.07457888 0.026118265 0.041955564 0.032308146 -0.05037481 0.049904928
0.07586955 -0.056880247 -0.010866302 0.054335136 -0.001715902 -0.043988872 0.07868304 -0.050590407
0.013557814 0.051043004 -0.03975121 0.08641861 -0.032969803 0.016373642 -0.013596538 -0.072040394
-0.010659367 0.010686165 -0.045422014 0.08549298 0.0046760696 -0.01941723 -0.035404775 -0.008577322
-0.08493775 -0.087715894 -0.008342513 0.085892774 0.066667154 -0.012081535 -0.04507861 -0.043417886
-0.039860066 0.035959274 -0.07268382 -0.034819227 -0.0005493365 -0.0696467 0.069464594 -0.08267204
0.08326634 0.07431523 -0.061143175 -0.03410764 0.04322406 0.027374009 0.020385412 -0.08270415
0.02612595 0.061356753 -0.046033554 -0.008123593 0.03452302 0.015667055 0.05156886 -0.038498618
-0.014734587 -0.07959004 0.024358032 0.05702448 0.009506251 0.084109366 0.0221609 -0.008759999
0.031581886 -0.07341142 0.0025829654 0.025522204 0.05997905 -0.023152694 0.06169594 -0.08724853
-0.08743134 0.011933088 0.057936158 0.055953342 -0.061543826 -0.050205562 -0.08731233 0.014187173
0.011314715 -0.006571298 0.03800748 0.013292577 0.0873994 -0.026781563 -0.027367076 -0.055252105
0.044745073 0.026004452 0.017235866 0.012299433 0.05872118 0.06685236 0.08618715 0.047604162
0.026409363 0.058755137 -0.03410917 0.022993652 0.07594747 0.0737694 -0.060900457 0.06073207
0.029986074 0.06515119 -0.08449447 -0.049144585 0.06575929 -0.05989569 -0.004231353 -0.041742776
-0.082443506 -0.067062564 0.0684026 0.030099694 -0.07597021 0.013538836 -0.033907544 -0.07427588
00000000: 72d0 01bd d9d8 9a3d 9f47 34bd bfc3 143d
00000010: 79c3 a0bd 6c15 0f3d da83 7c3d 70f6 703d
00000020: f083 90bc b751 883c 80b4 a3bd 0254 1ebc
00000030: 6b81 5c3d 7f85 2e3d 780e 883d 2d18 23bd
00000040: c0e9 36bd c801 5fbd f8a6 97bd faed 3a3d
00000050: 26d7 82bc 71af 17bb ad71 7fbd 5fc4 0a3d
00000060: fe10 9ebd 545c ed3c 914c 1abd 809e db3c
00000070: 06d2 3bbd 7f54 403d 5609 973c b61a 483d
00000080: 6455 a83c ed5d 5cbd a080 44bd f880 05bd
00000090: 37f7 aabc 7bf2 a53d d369 3ebc 0b72 6fbd
000000a0: f70e 883d a967 8bbd 753d 8c3d 8021 06bb
000000b0: e3fc 33bd 9855 7e3d 579f 813d 32f5 a13d
000000c0: f199 683d 832c 4bbd b5e6 6dbd 42f5 603d
000000d0: e124 97bd 2bcd 5ebd a35b 7d3d 2810 91bc
000000e0: d5ef 5c3d b16e 68bd 21fc 0b3c dde3 733d
000000f0: bb07 ce3c 18a7 e8bb ec11 9ebd 4229 163c
00000100: 0653 4b3d c0cb a7bb 85d8 d73c 8296 223d
00000110: 99a7 5d3d 07ea ca3c f5ae 883d 012c 82bd
00000120: 9bce 6e3d 21e6 7bbd 89f6 fd3c b31e 923c
00000130: e323 debc 038a 4b3d a665 b7bb 02c7 be3c
00000140: cef6 22bd 8256 1ebc ae27 f4bc d358 b0bd
00000150: a7f3 9dbc dd57 8dbd ddd2 863d c19b abbd
00000160: 0423 9dbb cbb9 50bd 7013 5fba 5411 bd3c
00000170: 8976 37bd 913f bcbc 56b9 9bbc 6091 e03c
00000180: 7660 81bd ed19 8c3d 531f 6fbd d1cf 94bd
00000190: 274a 993c b749 12bd 4879 70bd 56f4 1c3d
000001a0: 8333 f73b 3f61 21bc 7982 9dbd 3b61 01bc
000001b0: 54e4 373d 2968 823d 9410 25bd 2383 19bd
000001c0: 5095 183d 1b85 82bb 8087 513d 704a a3bc
000001d0: 153c 04bd e1d2 01bc 0b02 133d c3e0 c4bc
000001e0: 4b76 983d dab4 303b d235 39bb 5915 17bb
000001f0: f12c 8bbd 8e3f a1bb dad6 cfbc 0dac 9bbd
00000200: 9e07 7e3d 6e42 a93c d0bc 983d f9f5 d53c
00000210: 99d9 2b3d 8c55 043d d155 4ebd 1c69 4c3d
00000220: 7f61 9b3d 43fb 68bd 9308 32bc 858e 5e3d
00000230: 1ee8 e0ba ad2d 34bd 9324 a13d e337 4fbd
00000240: 9821 5e3c 7812 513d 2ad2 22bd 3dfc b03d
00000250: 580b 07bd 0422 863c 04c4 5ebc ea89 93bd
00000260: a0a4 2ebc 0615 2f3c 6f0c 3abd f216 af3d
00000270: b739 993b e210 9fbc 9904 11bd e587 0cbc
00000280: d8f3 adbd 64a4 b3bd 09af 08bc 8de8 af3d
00000290: ca88 883d a1f1 45bc 59a4 38bd f4d6 31bd
000002a0: 4f44 23bd 084a 133d 41db 94bd 9b9e 0ebd
000002b0: 5901 10ba eea2 8ebd 7443 8e3d f54f a9bd
000002c0: 8b87 aa3d 9532 983d 4471 7abd 74b4 0bbd
000002d0: b60b 313d 753f e03c 4fff a63c cb60 a9bd
000002e0: 1706 d63c 3851 7b3d ae8d 3cbd d218 05bc
000002f0: 0368 0d3d 3258 803c de39 533d bab0 1dbd
00000300: 5669 71bc 1a00 a3bd 7f8a c73c 8092 693d
00000310: 1bc0 1b3c 8841 ac3d c78a b53c 1986 0fbc
00000320: 025c 013d ba58 96bd f846 293b f113 d13c
00000330: 98ac 753d b8aa bdbc e2b4 7c3d 5baf b2bd
00000340: 340f b3bd 0083 433c 774e 6d3d 552f 653d
00000350: 6115 7cbd 59a4 4dbd cfd0 b2bd 5171 683c
00000360: 5b61 393c 0b54 d7bb bbad 1b3d 1cc9 593c
00000370: 75fe b23d 0265 dbbc eb30 e0bc 0850 62bd
00000380: 9c46 373d 4a07 d53c 3b32 8d3c 9083 493c
00000390: 9f85 703d e4e9 883d e382 b03d 95fc 423d
000003a0: 7358 d83c 3aa9 703d 0fb6 0bbd 2f5d bc3c
000003b0: 598a 9b3d 6914 973d c272 79bd 31c2 783d
000003c0: 5ba5 f53c fd6d 853d 700b adbd d54b 49bd
000003d0: ceac 863d 2f55 75bd 29a7 8abb 79fa 2abd
000003e0: 24d8 a8bd 1958 89bd aa16 8c3d a293 f63c
000003f0: 4596 9bbd fed1 5d3c a3e2 0abd f41d 98bd

net.4.weight f4 [3, 1024]
0.004392359 0.00029504567 0.0051839575 -0.0021900325 -0.0007903029 0.0029764576 0.002958827 -0.002475837
0.00018770732 -0.0024362314 -0.00029357968 -0.000912312 0.0039681876 -0.0039294865 0.004223701 -0.00058497034
0.0048173536 -0.00067943253 0.0009522801 -0.0006602941 0.0019332285 0.00072248204 -0.0037461487 -0.0023418819
-0.0023989684 -0.004398401 0.0021697371 0.004060499 0.000408606 0.0030183988 0.00237912 -0.0004977703
0.0018053963 0.003535824 0.00088001037 -0.004983056 -0.0010378227 0.0019473328 -0.0021075208 0.0016556174
-0.0029020587 -0.00032132457 0.00024737435 0.0016562215 -0.0027038804 -0.0043727183 0.0019048343 0.00095325644
0.00089758827 -0.00076602574 0.0013461643 -0.00020216295 0.0013586943 0.0023471552 0.0050705643 -0.0027725648
-0.0049672974 0.003926114 0.0008386163 0.0040104208 0.0016200346 -0.007288501 -0.0016839758 -0.0018741812
-0.008258017 0.0018910988 -0.0007639037 0.005213372 0.00090787275 -0.002634002 0.0019960229 -0.0012110865
0.004649548 -0.003725558 0.002893873 0.0010543425 -0.0070037995 -0.0017331496 0.004870359 -0.0064605777
-0.003687766 0.002128537 0.0017669667 0.0012115093 -0.0058522574 0.0011698495 -0.0028173488 0.0033482234
-0.0006572747 -0.005003456 0.0014096971 -0.0021134 0.0034129857 -0.0033203918 0.00904273 -0.00092303386
-0.0058196527 -0.009684513 -0.00096270134 0.0047274567 0.00072761613 -0.00070753176 0.0014961364 0.00085345
0.0026414564 -0.00061235204 0.0037424497 0.0004341993 -0.00033535756 0.0040595736 -0.0015154082 0.003162565
-0.002534146 -0.0017756406 0.0016197118 0.00021646214 0.0004593934 -0.0032140817 0.0035044276 0.0035998384
-0.0003297733 -0.0025453034 -0.0030870163 -0.01071457 -0.0031581158 0.0034385133 0.00407221 -0.0010541358
0.0014534969 -0.0019200712 -0.0019878817 0.0010124225 -0.0028560827 0.0027104593 -0.0014494625 0.0033392636
0.004202621 -0.00010938773 0.00040760156 0.0014073907 0.0010840767 -0.0014815329 -0.005948083 0.0018874176
-0.0011797872 0.0009987486 0.0039700177 -0.0036166634 0.0010825117 0.0005350821 -0.0039730896 -0.0006182882
-0.0016970362 0.0026371127 0.0009856483 -0.0010811737 0.0003682652 0.003603489 0.00315348 -0.0044455705
-0.0037685765 -0.0006368007 -0.00018055376 -0.003564437 0.0047613764 0.0062687513 -0.00015244632 -0.0010017229
-0.0036021033 0.0010867532 -0.0053307684 0.0051906216 0.001599308 0.002459288 0.0032489432 0.0017953208
-0.0029272381 -0.0016693864 0.0016094013 -0.0027517101 0.003154865 0.0031645831 0.003937921 0.0037531485
0.0042904573 0.002584321 -0.003419451 -0.00046582305 0.005834744 0.00066064636 -1.3659949e-05 0.001070308
-0.0004965824 -0.0041411244 -0.0038816668 0.003175672 0.0012094819 0.0023978294 0.0023370418 5.2474064e-05
0.0024197162 0.0035586345 -0.0024063655 0.0015783847 0.0057872212 0.0057981103 -0.0045649707 0.0024182154
-0.003369198 0.001190158 0.0011121652 0.0010289882 -0.0011037281 -0.0005186051 -0.0020348048 0.0005735842
0.0006532368 -0.00052672555 -0.002817738 -0.0010629228 -0.0020056767 0.0008245448 -0.0027127722 0.0031627798
0.0024727082 -0.0021793859 -0.000799367 -0.0035056586 -9.92909e-05 -0.0022311297 0.0024410938 -0.00562781
-0.003639668 0.00079684163 0.0020727555 0.0024640115 0.0004895137 0.003699078 -0.0039369217 0.0043582185
-0.0015213775 -0.0063165105 0.0034096374 -0.004309511 0.0022825932 -0.0017951095 -0.0009962813 0.006595687
0.0030718234 -0.0023438844 0.0036724312 -0.0043754294 0.0064021423 0.0028034302 0.0025435598 0.0027553753
00000000: c7ed 8f3b 5cb0 9a39 30de a93b a686 0fbb
00000010: 542c 4fba ac10 433b e1e8 413b a741 22bb
00000020: 4dd3 4439 2ea9 1fbb 99eb 99b9 3928 6fba
00000030: 9207 823b ecc2 80bb f966 8a3b b258 19ba
00000040: e4da 9d3b f21b 32ba 70a2 793a 9617 2dba
00000050: 6264 fd3a f364 3d3a f281 75bb 427a 19bb
00000060: 0338 1dbb 7620 90bb 2632 0e3b ef0d 853b
00000070: 2b3a d639 54d0 453b 03eb 1b3b cd7c 02ba
00000080: 0ca3 ec3a 48b9 673b 7fb0 663a e748 a3bb
00000090: 8d07 88ba a53d ff3a 551e 0abb 4d01 d93a
000000a0: 7730 3ebb 7477 a8b9 06b2 8139 9215 d93a
000000b0: 9633 31bb 0549 8fbb a2ab f93a f5e3 793a
000000c0: 214c 6b3a 1ecf 48ba c771 b03a b4fb 53b9
000000d0: 3716 b23a bbd2 193b fa26 a63b ebb3 35bb
000000e0: b6c4 a2bb a2a6 803b 96d6 5b3a d969 833b
000000f0: 5757 d43a 61d4 eebb dab8 dcba 16a7 f5ba
00000100: a24c 07bc bfde f73a b640 48ba efd4 aa3b
00000110: 4ffe 6d3a 389f 2cbb b5cf 023b 52bd 9eba
00000120: 3c5b 983b 7e28 74bb 22a7 3d3b dd31 8a3a
00000130: 2180 e5bb da2a e3ba 8897 9f3b 41b3 d3bb
00000140: 72ae 71bb ed7e 0b3b 9099 e73a 82cb 9e3a
00000150: 4bc4 bfbb a355 993a 45a3 38bb de6d 5b3b
00000160: f54c 2cba 08f4 a3bb 96c5 b83a f880 0abb
00000170: 66ac 5f3b ee9a 59bb f527 143c c1f7 71ba
00000180: c9b2 bebb cbab 1ebc cb5d 7cba c8e8 9a3b
00000190: 7ebd 3e3a a779 39ba 021a c43a 0fba 5f3a
000001a0: 491c 2d3b 4086 20ba e343 753b 3ea5 e339
000001b0: eed2 afb9 2c06 853b a9a0 c6ba 0943 4f3b
000001c0: ea13 26bb 9dbc e8ba 824c d43a 1dfa 6239
000001d0: bdda f039 58a3 52bb 8aaa 653b 44eb 6b3b
000001e0: 6ce5 acb9 1bcf 26bb 8a4f 4abb 2a8c 2fbc
000001f0: 64f8 4ebb ae58 613b 2c70 853b ee2a 8aba
00000200: 4383 be3a e6aa fbba 1f47 02bb 43b3 843a
00000210: 1e2d 3bbb f6a1 313b e4fb bdba 8cd7 5a3b
00000220: 24b6 893b 1767 e5b8 5bb3 d539 3278 b83a
00000230: 9417 8e3a ff2f c2ba 23e8 c2bb 3a63 f73a
00000240: 17a3 9aba 71e8 823a ec16 823b 8b05 6dbb
00000250: 11e3 8d3a c044 0c3a b130 82bb 9e14 22ba
00000260: 166f deba 69d3 2c3b de30 813a 2bb6 8dba
00000270: b813 c139 8328 6c3b 9daa 4e3b 26ac 91bb
00000280: 39fa 76bb f9ee 26ba 0853 3db9 5499 69bb
00000290: 5205 9c3b 196a cd3b ffd9 1fb9 3e4c 83ba
000002a0: 4411 6cbb 6371 8e3a baad aebb 1716 aa3b
000002b0: df9f d13a 022c 213b 39ec 543b f850 eb3a
000002c0: e8d6 3fbb 50cf daba 8cf2 d23a 0956 34bb
000002d0: dac1 4e3b e564 4f3b ad09 813b 62f7 753b
000002e0: f796 8c3b b65d 293b de18 60bb b639 f4b9
000002f0: 6131 bf3b 3a2f 2d3a 092d 65b7 9449 8c3a
00000300: 152d 02ba 45b2 87bb 9063 7ebb ef1e 503b
00000310: 7a87 9e3a e724 1d3b 0e29 193b 9917 5c38
00000320: 1a94 1e3b fb37 693b 1db4 1dbb cde1 ce3a
00000330: bba2 bd3b 13fe bd3b c095 95bb ec7a 1e3b
00000340: c3cd 5cbb 13ff 9b3a 12c6 913a 1ddf 863a
00000350: f8aa 90ba 00f3 07ba 5c5a 05bb 965c 163a
00000360: fb3d 2b3a f413 0aba cda9 38bb c551 8bba
00000370: ac71 03bb 4426 583a c4c8 31bb a446 4f3b
00000380: 290d 223b 07d4 0ebb 9c8c 51ba 31bf 65bb
00000390: 653a d0b8 2538 12bb c2fa 1f3b 7e69 b8bb
000003a0: 7f87 6ebb 23e3 503a 11d7 073b 417b 213b
000003b0: b552 003a 3b6c 723b 4b01 81bb 63cf 8e3b
000003c0: f568 c7ba bbfa cebb 3974 5f3b cc36 8dbb
000003d0: 8f97 153b e149 ebba a795 82ba a220 d83b
000003e0: a550 493b db9b 19bb 2cad 703b c35f 8fbb
000003f0: 10c9 d13b c1b9 373b dab1 263b 8793 343b

net.4.bias f4 [3]
7.019326e-05 6.495589e-05 7.3467825e-05
00000000: b834 9338 ee38 8838 bd12 9a38
